lib/data/mano_mean_params.pt (torch, 1379 bytes, 3 tensors)

orient f4 [3]
00000000: 44c4 1c3f d7d5 e5be ca2e 133f
0.6123698 -0.4488971 0.5749327

hand_pose f4 [45]
00000000: 1f02 cb3d 981a 0fbe ee4b af3e b145 883d
00000010: 2ce6 323d 26e7 e53e fb9f 2abd 427d c6bc
00000020: b86c f93d 15be e3bd ff09 2cbd 3881 f53e
00000030: fec3 acbd 103b 0cbd 38ee d83e 6a84 55bd
00000040: 60e7 543d 371f 733e 6307 d1be 9901 773e
00000050: 2a1e f03e c0f3 babd bdd4 e53c 7005 973e
00000060: c6ec a8be 8396 063d ed55 803b d787 02be
00000070: 3b5f 0a3d 89f5 0b3f 6097 60be 448b 693d
00000080: 88e3 a13e 9da6 40be 95a1 a83d 7176 9c3e
00000090: bb98 313f 6c0d 7fbe 1f03 5d3c c614 02bf
000000a0: 134a 6c3c 9363 413c 4fb8 ea3e 1218 80bd
000000b0: 5a63 c33d
0.09912514 -0.13974988 0.34237617 0.066539176 0.04367654 0.44902915 -0.041656476 -0.02422965
0.121789396 -0.1112024 -0.04200172 0.4795015 -0.0843582 -0.034236014 0.42369246 -0.052128233
0.05197847 0.23742376 -0.40825948 0.24121703 0.46898013 -0.09128523 0.028055543 0.29496336
-0.32993144 0.032858383 0.003916493 -0.12747131 0.033782225 0.5467153 -0.21932745 0.05701758
0.31618905 -0.18813558 0.08233944 0.30559114 0.69373673 -0.24907464 0.013489514 -0.5081295
0.014421958 0.0118035255 0.4584374 -0.06254591 0.09540434

betas f4 [10]
00000000: 42c3 96be a402 0fbd de09 fabe 1d92 41be
00000010: 31a6 21be 0b31 0abe 23a2 2bbd bba8 3e3d
00000020: ac05 a7bd a7ad 923d
-0.29445845 -0.034914628 -0.48835653 -0.18903394 -0.15786053 -0.13495271 -0.041902672 0.046547633
-0.08155379 0.07162028
